…
Training Setting: Namespace(adaptive=1, backend='modelE', batch_size=128, circles=10, dataset_name='cifar100', dropout=0.5, fb='1:1:1', ge=1, lmbda=0.01, max_epoch=300, step_all=0, step_clf=0, threshold=0.5, vanilla=0)
Training: Epoch=299 | Loss: 1.658 |  Acc: 63.684,96.060,99.978,% | Adaptive Acc:94.806% | clf_exit: 0.421 0.493 0.087 
Testing: Epoch=299 | Loss: 3.848 |  Acc: 54.850,69.130,74.150,% | Adaptive Acc:69.170% | clf_exit: 0.474 0.349 0.177 


==> Preparing data..
Dataset: CIFAR100
Files already downloaded and verified
Files already downloaded and verified
==> Building model..
PredNetBpD(
  (classifiers): ModuleList(
    (0): ClassifierModule(
      (relu): ReLU(inplace=True)
      (BN): BatchNorm2d(32, eps=1e-05, momentum=0.1, affine=True, track_running_stats=True)
      (FFconv): Conv2d(128, 32, kernel_size=(3, 3), stride=(1, 1), padding=(1, 1), bias=False)
      (linear): Linear(in_features=32, out_features=100, bias=True)
      (b0): ParameterList(  (0): Parameter containing: [torch.FloatTensor of size 1x32x1x1])
      (FBconv): ConvTranspose2d(32, 128, kernel_size=(3, 3), stride=(1, 1), padding=(1, 1), bias=False)
      (bypass): Conv2d(128, 32, kernel_size=(1, 1), stride=(1, 1), bias=False)
    )
    (1): ClassifierModule(
      (relu): ReLU(inplace=True)
      (BN): BatchNorm2d(64, eps=1e-05, momentum=0.1, affine=True, track_running_stats=True)
      (FFconv): Conv2d(288, 64, kernel_size=(3, 3), stride=(1, 1), padding=(1, 1), bias=False)
      (linear): Linear(in_features=64, out_features=100, bias=True)
      (b0): ParameterList(  (0): Parameter containing: [torch.FloatTensor of size 1x64x1x1])
      (FBconv): ConvTranspose2d(64, 288, kernel_size=(3, 3), stride=(1, 1), padding=(1, 1), bias=False)
      (bypass): Conv2d(288, 64, kernel_size=(1, 1), stride=(1, 1), bias=False)
    )
    (2): ClassifierModule(
      (relu): ReLU(inplace=True)
      (BN): BatchNorm2d(64, eps=1e-05, momentum=0.1, affine=True, track_running_stats=True)
      (FFconv): Conv2d(576, 64, kernel_size=(3, 3), stride=(1, 1), padding=(1, 1), bias=False)
      (linear): Linear(in_features=64, out_features=100, bias=True)
      (b0): ParameterList(  (0): Parameter containing: [torch.FloatTensor of size 1x64x1x1])
      (FBconv): ConvTranspose2d(64, 576, kernel_size=(3, 3), stride=(1, 1), padding=(1, 1), bias=False)
      (bypass): Conv2d(576, 64, kernel_size=(1, 1), stride=(1, 1), bias=False)
    )
  )
  (PcConvs): ModuleList(
    (0): PcConvBp(
      (FFconv): Conv2d(3, 64, kernel_size=(3, 3), stride=(1, 1), padding=(1, 1), bias=False)
      (relu): ReLU(inplace=True)
      (bypass): Conv2d(3, 64, kernel_size=(1, 1), stride=(1, 1), bias=False)
    )
    (1): PcConvBp(
      (FFconv): Conv2d(64, 64, kernel_size=(3, 3), stride=(1, 1), padding=(1, 1), bias=False)
      (relu): ReLU(inplace=True)
      (bypass): Conv2d(64, 64, kernel_size=(1, 1), stride=(1, 1), bias=False)
    )
    (2): PcConvBp(
      (FFconv): Conv2d(64, 128, kernel_size=(3, 3), stride=(1, 1), padding=(1, 1), bias=False)
      (relu): ReLU(inplace=True)
      (bypass): Conv2d(64, 128, kernel_size=(1, 1), stride=(1, 1), bias=False)
    )
    (3): PcConvBp(
      (FFconv): Conv2d(128, 128, kernel_size=(3, 3), stride=(1, 1), padding=(1, 1), bias=False)
      (relu): ReLU(inplace=True)
      (bypass): Conv2d(128, 128, kernel_size=(1, 1), stride=(1, 1), bias=False)
    )
    (4): PcConvBp(
      (FFconv): Conv2d(128, 256, kernel_size=(3, 3), stride=(1, 1), padding=(1, 1), bias=False)
      (relu): ReLU(inplace=True)
      (bypass): Conv2d(128, 256, kernel_size=(1, 1), stride=(1, 1), bias=False)
    )
    (5): PcConvBp(
      (FFconv): Conv2d(256, 256, kernel_size=(3, 3), stride=(1, 1), padding=(1, 1), bias=False)
      (relu): ReLU(inplace=True)
      (bypass): Conv2d(256, 256, kernel_size=(1, 1), stride=(1, 1), bias=False)
    )
    (6): PcConvBp(
      (FFconv): Conv2d(256, 512, kernel_size=(3, 3), stride=(1, 1), padding=(1, 1), bias=False)
      (relu): ReLU(inplace=True)
      (bypass): Conv2d(256, 512, kernel_size=(1, 1), stride=(1, 1), bias=False)
    )
    (7): PcConvBp(
      (FFconv): Conv2d(512, 512, kernel_size=(3, 3), stride=(1, 1), padding=(1, 1), bias=False)
      (relu): ReLU(inplace=True)
      (bypass): Conv2d(512, 512, kernel_size=(1, 1), stride=(1, 1), bias=False)
    )
  )
  (BNs): ModuleList(
    (0): BatchNorm2d(3, eps=1e-05, momentum=0.1, affine=True, track_running_stats=True)
    (1): BatchNorm2d(64, eps=1e-05, momentum=0.1, affine=True, track_running_stats=True)
    (2): BatchNorm2d(64, eps=1e-05, momentum=0.1, affine=True, track_running_stats=True)
    (3): BatchNorm2d(128, eps=1e-05, momentum=0.1, affine=True, track_running_stats=True)
    (4): BatchNorm2d(128, eps=1e-05, momentum=0.1, affine=True, track_running_stats=True)
    (5): BatchNorm2d(256, eps=1e-05, momentum=0.1, affine=True, track_running_stats=True)
    (6): BatchNorm2d(256, eps=1e-05, momentum=0.1, affine=True, track_running_stats=True)
    (7): BatchNorm2d(512, eps=1e-05, momentum=0.1, affine=True, track_running_stats=True)
  )
  (maxpool2d): MaxPool2d(kernel_size=2, stride=2, padding=0, dilation=1, ceil_mode=False)
)

Epoch: 0
Batch: 0 | Loss: 15.423 | Acc: 0.000,0.781,0.000,% | Adaptive Acc: 0.000% | clf_exit: 
Batch: 20 | Loss: 14.130 | Acc: 1.339,3.013,4.129,% | Adaptive Acc: 0.000% | clf_exit: 
Batch: 40 | Loss: 13.871 | Acc: 1.963,4.306,5.297,% | Adaptive Acc: 0.000% | clf_exit: 
…
