…
Training Setting: backend=modelE | dataset=cifar100 | adaptive=1 | batch_size=128 | epoch=299 | lr=1.0e-05 | circles=5 | dropout=0.50 | step_all=0 | step_clf=0 | vanilla=0 | ge=1 | fb=111
Training: Epoch=299 | Loss: 1.686 |  Acc: 63.310,95.602,99.974,% | Adaptive Acc:94.834% | clf_exit: 0.420 0.488 0.092 
Testing: Epoch=299 | Loss: 3.825 |  Acc: 54.000,69.460,74.500,% | Adaptive Acc:69.330% | clf_exit: 0.459 0.356 0.185 


==> Preparing data..
Dataset: CIFAR100
Files already downloaded and verified
Files already downloaded and verified
==> Building model..
PredNetBpD(
  (classifiers): ModuleList(
    (0): ClassifierModule(
      (relu): ReLU(inplace=True)
      (BN): BatchNorm2d(32, eps=1e-05, momentum=0.1, affine=True, track_running_stats=True)
      (FFconv): Conv2d(128, 32, kernel_size=(3, 3), stride=(1, 1), padding=(1, 1), bias=False)
      (linear): Linear(in_features=32, out_features=100, bias=True)
      (b0): ParameterList(  (0): Parameter containing: [torch.FloatTensor of size 1x32x1x1])
      (FBconv): ConvTranspose2d(32, 128, kernel_size=(3, 3), stride=(1, 1), padding=(1, 1), bias=False)
      (bypass): Conv2d(128, 32, kernel_size=(1, 1), stride=(1, 1), bias=False)
    )
    (1): ClassifierModule(
      (relu): ReLU(inplace=True)
      (BN): BatchNorm2d(64, eps=1e-05, momentum=0.1, affine=True, track_running_stats=True)
      (FFconv): Conv2d(288, 64, kernel_size=(3, 3), stride=(1, 1), padding=(1, 1), bias=False)
      (linear): Linear(in_features=64, out_features=100, bias=True)
      (b0): ParameterList(  (0): Parameter containing: [torch.FloatTensor of size 1x64x1x1])
      (FBconv): ConvTranspose2d(64, 288, kernel_size=(3, 3), stride=(1, 1), padding=(1, 1), bias=False)
      (bypass): Conv2d(288, 64, kernel_size=(1, 1), stride=(1, 1), bias=False)
    )
    (2): ClassifierModule(
      (relu): ReLU(inplace=True)
      (BN): BatchNorm2d(64, eps=1e-05, momentum=0.1, affine=True, track_running_stats=True)
      (FFconv): Conv2d(576, 64, kernel_size=(3, 3), stride=(1, 1), padding=(1, 1), bias=False)
      (linear): Linear(in_features=64, out_features=100, bias=True)
      (b0): ParameterList(  (0): Parameter containing: [torch.FloatTensor of size 1x64x1x1])
      (FBconv): ConvTranspose2d(64, 576, kernel_size=(3, 3), stride=(1, 1), padding=(1, 1), bias=False)
      (bypass): Conv2d(576, 64, kernel_size=(1, 1), stride=(1, 1), bias=False)
    )
  )
  (PcConvs): ModuleList(
    (0): PcConvBp(
      (FFconv): Conv2d(3, 64, kernel_size=(3, 3), stride=(1, 1), padding=(1, 1), bias=False)
      (relu): ReLU(inplace=True)
      (bypass): Conv2d(3, 64, kernel_size=(1, 1), stride=(1, 1), bias=False)
    )
    (1): PcConvBp(
      (FFconv): Conv2d(64, 64, kernel_size=(3, 3), stride=(1, 1), padding=(1, 1), bias=False)
      (relu): ReLU(inplace=True)
      (bypass): Conv2d(64, 64, kernel_size=(1, 1), stride=(1, 1), bias=False)
    )
    (2): PcConvBp(
      (FFconv): Conv2d(64, 128, kernel_size=(3, 3), stride=(1, 1), padding=(1, 1), bias=False)
      (relu): ReLU(inplace=True)
      (bypass): Conv2d(64, 128, kernel_size=(1, 1), stride=(1, 1), bias=False)
    )
    (3): PcConvBp(
      (FFconv): Conv2d(128, 128, kernel_size=(3, 3), stride=(1, 1), padding=(1, 1), bias=False)
      (relu): ReLU(inplace=True)
      (bypass): Conv2d(128, 128, kernel_size=(1, 1), stride=(1, 1), bias=False)
    )
    (4): PcConvBp(
      (FFconv): Conv2d(128, 256, kernel_size=(3, 3), stride=(1, 1), padding=(1, 1), bias=False)
      (relu): ReLU(inplace=True)
      (bypass): Conv2d(128, 256, kernel_size=(1, 1), stride=(1, 1), bias=False)
    )
    (5): PcConvBp(
      (FFconv): Conv2d(256, 256, kernel_size=(3, 3), stride=(1, 1), padding=(1, 1), bias=False)
      (relu): ReLU(inplace=True)
      (bypass): Conv2d(256, 256, kernel_size=(1, 1), stride=(1, 1), bias=False)
    )
    (6): PcConvBp(
      (FFconv): Conv2d(256, 512, kernel_size=(3, 3), stride=(1, 1), padding=(1, 1), bias=False)
      (relu): ReLU(inplace=True)
      (bypass): Conv2d(256, 512, kernel_size=(1, 1), stride=(1, 1), bias=False)
    )
    (7): PcConvBp(
      (FFconv): Conv2d(512, 512, kernel_size=(3, 3), stride=(1, 1), padding=(1, 1), bias=False)
      (relu): ReLU(inplace=True)
      (bypass): Conv2d(512, 512, kernel_size=(1, 1), stride=(1, 1), bias=False)
    )
  )
  (BNs): ModuleList(
    (0): BatchNorm2d(3, eps=1e-05, momentum=0.1, affine=True, track_running_stats=True)
    (1): BatchNorm2d(64, eps=1e-05, momentum=0.1, affine=True, track_running_stats=True)
    (2): BatchNorm2d(64, eps=1e-05, momentum=0.1, affine=True, track_running_stats=True)
    (3): BatchNorm2d(128, eps=1e-05, momentum=0.1, affine=True, track_running_stats=True)
    (4): BatchNorm2d(128, eps=1e-05, momentum=0.1, affine=True, track_running_stats=True)
    (5): BatchNorm2d(256, eps=1e-05, momentum=0.1, affine=True, track_running_stats=True)
    (6): BatchNorm2d(256, eps=1e-05, momentum=0.1, affine=True, track_running_stats=True)
    (7): BatchNorm2d(512, eps=1e-05, momentum=0.1, affine=True, track_running_stats=True)
  )
  (maxpool2d): MaxPool2d(kernel_size=2, stride=2, padding=0, dilation=1, ceil_mode=False)
)

Epoch: 0
Batch: 0 | Loss: 14.033 | Acc: 0.000,0.781,0.000,% | Adaptive Acc: 0.000% | clf_exit: 
Batch: 20 | Loss: 13.812 | Acc: 1.600,2.976,4.092,% | Adaptive Acc: 0.000% | clf_exit: 
Batch: 40 | Loss: 13.585 | Acc: 2.534,4.040,5.621,% | Adaptive Acc: 0.000% | clf_exit: 
…
