…
Training Setting: backend=modelC | dataset=cifar100 | batch_size=128 | epoch=37 | lr=1.0e-02 | circles=0 
Training: Epoch=37 | Loss: 14.549 |  Acc: 16.834,24.768,37.536,50.296,66.386,75.612,79.764,80.128,% 
Testing: Epoch=37 | Loss: 17.467 |  Acc: 15.670,21.840,33.630,45.940,58.150,62.990,63.380,63.010,% 

Training Setting: backend=modelC | dataset=cifar100 | batch_size=128 | epoch=38 | lr=1.0e-02 | circles=0 


==> Preparing data..
Dataset: CIFAR100
Files already downloaded and verified
Files already downloaded and verified
==> Building model..
PredNetBpD(
  (classifiers): ModuleList(
    (0): ClassifierModule(
      (relu): ReLU(inplace=True)
      (BN): BatchNorm2d(64, eps=1e-05, momentum=0.1, affine=True, track_running_stats=True)
      (linear): Linear(in_features=64, out_features=100, bias=True)
      (linear_bw): Linear(in_features=100, out_features=64, bias=True)
      (b0): ParameterList(  (0): Parameter containing: [torch.FloatTensor of size 1x100])
    )
    (1): ClassifierModule(
      (relu): ReLU(inplace=True)
      (BN): BatchNorm2d(64, eps=1e-05, momentum=0.1, affine=True, track_running_stats=True)
      (linear): Linear(in_features=164, out_features=100, bias=True)
      (linear_bw): Linear(in_features=100, out_features=164, bias=True)
      (b0): ParameterList(  (0): Parameter containing: [torch.FloatTensor of size 1x100])
    )
    (2): ClassifierModule(
      (relu): ReLU(inplace=True)
      (BN): BatchNorm2d(128, eps=1e-05, momentum=0.1, affine=True, track_running_stats=True)
      (linear): Linear(in_features=228, out_features=100, bias=True)
      (linear_bw): Linear(in_features=100, out_features=228, bias=True)
      (b0): ParameterList(  (0): Parameter containing: [torch.FloatTensor of size 1x100])
    )
    (3): ClassifierModule(
      (relu): ReLU(inplace=True)
      (BN): BatchNorm2d(128, eps=1e-05, momentum=0.1, affine=True, track_running_stats=True)
      (linear): Linear(in_features=228, out_features=100, bias=True)
      (linear_bw): Linear(in_features=100, out_features=228, bias=True)
      (b0): ParameterList(  (0): Parameter containing: [torch.FloatTensor of size 1x100])
    )
    (4): ClassifierModule(
      (relu): ReLU(inplace=True)
      (BN): BatchNorm2d(256, eps=1e-05, momentum=0.1, affine=True, track_running_stats=True)
      (linear): Linear(in_features=356, out_features=100, bias=True)
      (linear_bw): Linear(in_features=100, out_features=356, bias=True)
      (b0): ParameterList(  (0): Parameter containing: [torch.FloatTensor of size 1x100])
    )
    (5): ClassifierModule(
      (relu): ReLU(inplace=True)
      (BN): BatchNorm2d(256, eps=1e-05, momentum=0.1, affine=True, track_running_stats=True)
      (linear): Linear(in_features=356, out_features=100, bias=True)
      (linear_bw): Linear(in_features=100, out_features=356, bias=True)
      (b0): ParameterList(  (0): Parameter containing: [torch.FloatTensor of size 1x100])
    )
    (6): ClassifierModule(
      (relu): ReLU(inplace=True)
      (BN): BatchNorm2d(512, eps=1e-05, momentum=0.1, affine=True, track_running_stats=True)
      (linear): Linear(in_features=612, out_features=100, bias=True)
      (linear_bw): Linear(in_features=100, out_features=612, bias=True)
      (b0): ParameterList(  (0): Parameter containing: [torch.FloatTensor of size 1x100])
    )
    (7): ClassifierModule(
      (relu): ReLU(inplace=True)
      (BN): BatchNorm2d(512, eps=1e-05, momentum=0.1, affine=True, track_running_stats=True)
      (linear): Linear(in_features=612, out_features=100, bias=True)
      (linear_bw): Linear(in_features=100, out_features=612, bias=True)
      (b0): ParameterList(  (0): Parameter containing: [torch.FloatTensor of size 1x100])
    )
  )
  (PcConvs): ModuleList(
    (0): PcConvBp(
      (FFconv): Conv2d(3, 64, kernel_size=(3, 3), stride=(1, 1), padding=(1, 1), bias=False)
      (FBconv): ConvTranspose2d(64, 3, kernel_size=(3, 3), stride=(1, 1), padding=(1, 1), bias=False)
      (b0): ParameterList(  (0): Parameter containing: [torch.FloatTensor of size 1x64x1x1])
      (relu): ReLU(inplace=True)
      (bypass): Conv2d(3, 64, kernel_size=(1, 1), stride=(1, 1), bias=False)
    )
    (1): PcConvBp(
      (FFconv): Conv2d(64, 64, kernel_size=(3, 3), stride=(1, 1), padding=(1, 1), bias=False)
      (FBconv): ConvTranspose2d(64, 64, kernel_size=(3, 3), stride=(1, 1), padding=(1, 1), bias=False)
      (b0): ParameterList(  (0): Parameter containing: [torch.FloatTensor of size 1x64x1x1])
      (relu): ReLU(inplace=True)
      (bypass): Conv2d(64, 64, kernel_size=(1, 1), stride=(1, 1), bias=False)
    )
    (2): PcConvBp(
      (FFconv): Conv2d(64, 128, kernel_size=(3, 3), stride=(1, 1), padding=(1, 1), bias=False)
      (FBconv): ConvTranspose2d(128, 64, kernel_size=(3, 3), stride=(1, 1), padding=(1, 1), bias=False)
      (b0): ParameterList(  (0): Parameter containing: [torch.FloatTensor of size 1x128x1x1])
      (relu): ReLU(inplace=True)
      (bypass): Conv2d(64, 128, kernel_size=(1, 1), stride=(1, 1), bias=False)
    )
    (3): PcConvBp(
      (FFconv): Conv2d(128, 128, kernel_size=(3, 3), stride=(1, 1), padding=(1, 1), bias=False)
      (FBconv): ConvTranspose2d(128, 128, kernel_size=(3, 3), stride=(1, 1), padding=(1, 1), bias=False)
      (b0): ParameterList(  (0): Parameter containing: [torch.FloatTensor of size 1x128x1x1])
      (relu): ReLU(inplace=True)
      (bypass): Conv2d(128, 128, kernel_size=(1, 1), stride=(1, 1), bias=False)
    )
    (4): PcConvBp(
      (FFconv): Conv2d(128, 256, kernel_size=(3, 3), stride=(1, 1), padding=(1, 1), bias=False)
      (FBconv): ConvTranspose2d(256, 128, kernel_size=(3, 3), stride=(1, 1), padding=(1, 1), bias=False)
      (b0): ParameterList(  (0): Parameter containing: [torch.FloatTensor of size 1x256x1x1])
      (relu): ReLU(inplace=True)
      (bypass): Conv2d(128, 256, kernel_size=(1, 1), stride=(1, 1), bias=False)
    )
    (5): PcConvBp(
      (FFconv): Conv2d(256, 256, kernel_size=(3, 3), stride=(1, 1), padding=(1, 1), bias=False)
      (FBconv): ConvTranspose2d(256, 256, kernel_size=(3, 3), stride=(1, 1), padding=(1, 1), bias=False)
      (b0): ParameterList(  (0): Parameter containing: [torch.FloatTensor of size 1x256x1x1])
      (relu): ReLU(inplace=True)
      (bypass): Conv2d(256, 256, kernel_size=(1, 1), stride=(1, 1), bias=False)
    )
    (6): PcConvBp(
      (FFconv): Conv2d(256, 512, kernel_size=(3, 3), stride=(1, 1), padding=(1, 1), bias=False)
      (FBconv): ConvTranspose2d(512, 256, kernel_size=(3, 3), stride=(1, 1), padding=(1, 1), bias=False)
      (b0): ParameterList(  (0): Parameter containing: [torch.FloatTensor of size 1x512x1x1])
      (relu): ReLU(inplace=True)
      (bypass): Conv2d(256, 512, kernel_size=(1, 1), stride=(1, 1), bias=False)
    )
    (7): PcConvBp(
      (FFconv): Conv2d(512, 512, kernel_size=(3, 3), stride=(1, 1), padding=(1, 1), bias=False)
      (FBconv): ConvTranspose2d(512, 512, kernel_size=(3, 3), stride=(1, 1), padding=(1, 1), bias=False)
      (b0): ParameterList(  (0): Parameter containing: [torch.FloatTensor of size 1x512x1x1])
      (relu): ReLU(inplace=True)
      (bypass): Conv2d(512, 512, kernel_size=(1, 1), stride=(1, 1), bias=False)
    )
  )
  (BNs): ModuleList(
    (0): BatchNorm2d(3, eps=1e-05, momentum=0.1, affine=True, track_running_stats=True)
    (1): BatchNorm2d(64, eps=1e-05, momentum=0.1, affine=True, track_running_stats=True)
    (2): BatchNorm2d(64, eps=1e-05, momentum=0.1, affine=True, track_running_stats=True)
    (3): BatchNorm2d(128, eps=1e-05, momentum=0.1, affine=True, track_running_stats=True)
    (4): BatchNorm2d(128, eps=1e-05, momentum=0.1, affine=True, track_running_stats=True)
    (5): BatchNorm2d(256, eps=1e-05, momentum=0.1, affine=True, track_running_stats=True)
    (6): BatchNorm2d(256, eps=1e-05, momentum=0.1, affine=True, track_running_stats=True)
    (7): BatchNorm2d(512, eps=1e-05, momentum=0.1, affine=True, track_running_stats=True)
  )
  (maxpool2d): MaxPool2d(kernel_size=2, stride=2, padding=0, dilation=1, ceil_mode=False)
)

Epoch: 0
Batch: 0 | Loss: 37.070 | Acc: 0.000,0.000,0.000,0.781,1.562,1.562,2.344,1.562,%
Batch: 20 | Loss: 36.458 | Acc: 0.670,0.893,1.860,1.600,2.641,2.902,3.051,3.869,%
Batch: 40 | Loss: 35.933 | Acc: 1.029,1.601,2.496,2.706,3.982,3.868,4.249,4.878,%
…
